test_file/resources/output_result.pt (torch, 1279 bytes, 2 tensors)

weight f4 [11, 5]
0.22991633 0.05283606 -0.09199661 -0.42794803 0.1481322 -0.20745453 -0.24570447 -0.33957982
-0.074932545 0.39812332 -0.40864325 0.38323975 -0.27380666 0.099914074 0.20671177 -0.21254583
0.029265106 0.19206339 0.17878294 -0.072560966 -0.18588114 -0.36222023 0.32283264 0.26303613
-0.18675509 0.38114017 0.3675583 0.3443408 0.09883821 0.17460483 0.13059908 0.21935058
0.09290773 -0.36941117 0.40343535 -0.43620428 -0.045172334 0.24082422 -0.40864965 0.047658324
0.41063935 -0.2563673 -0.33172676 0.094270885 0.35788953 -0.00943011 -0.27169487 0.30090082
0.44234878 -0.40862 -0.10658181 -0.013020128 -0.39802462 0.059626162 -0.012990922
00000000: 306f 6b3e a06a 583d b868 bcbd 011c dbbe
00000010: f8af 173e f66e 54be f499 7bbe 68dd adbe
00000020: 3c76 99bd d2d6 cb3e b039 d1be 0038 c43e
00000030: 6330 8cbe c09f cc3d 40ac 533e 9da5 59be
00000040: 60bd ef3c 44ac 443e e012 373e d89a 94bd
00000050: a057 3ebe ee74 b9be 524a a53e acac 863e
00000060: ba3c 3fbe ce24 c33e 9a30 bc3e 704d b03e
00000070: b06b ca3d 9ccb 323e c4bb 053e 709d 603e
00000080: 6846 be3d 7623 bdbe 148f ce3e 2b56 dfbe
00000090: a006 39bd a09a 763e 873a d1be 6035 433d
000000a0: 523f d23e 9342 83be 17d8 a9be 1811 c13d
000000b0: 4c3d b73e c080 1abc 971b 8bbe ac0f 9a3e
000000c0: 8a7b e23e a436 d1be 9047 dabd 6052 55bc
000000d0: e2c9 cbbe 903a 743d e0d7 54bc

bias f4 [11]
-0.25479636 -0.3686158 0.0588426 -0.09890568 -0.22923484 0.41388726 -0.06357336 -0.12847534
-0.22353137 0.12116349 0.20969468
00000000: ab74 82be 36bb bcbe f004 713d 108f cabd
00000010: 8abc 6abe 08e9 d33e c032 82bd 0a8f 03be
00000020: 68e5 64be 9024 f83d 34ba 563e
